theta0.npy (npy, 1704 bytes, 1 tensors)

array f8 [203]
00000000: a8b9 6668 a380 973f f81e c8f8 e6f1 ac3f
00000010: 38b3 9fd9 4b9c 933f 90ae b521 3dd1 853f
00000020: 2254 4a96 76b3 babf a492 54ad ff0d b43f
00000030: 7280 6bb3 0e6c b93f cb2a 9b6c e7a9 bbbf
00000040: 909b 33c6 dd68 903f a054 1de8 9196 bcbf
00000050: 98f7 472d 0626 80bf 608e b375 9e08 b1bf
00000060: 7cf2 efc7 995c b4bf 8430 2c2a 5f86 a93f
00000070: 409a e2d7 fbfc 8b3f 421d 8bcc 0456 bcbf
00000080: 0980 15e5 6a29 b9bf a2d7 788d 3438 b2bf
00000090: f026 69fe e118 ad3f b822 dc73 d771 bdbf
000000a0: 2563 a848 0174 babf 3c85 a9fd f10f bd3f
000000b0: 80e3 cec3 6205 553f 70c0 e222 6a66 a13f
000000c0: 2836 8921 2315 ad3f 7905 b635 cb38 bcbf
000000d0: 78cf 8024 b33a bb3f d8a9 e112 b84a 99bf
000000e0: 4867 b2c0 1031 8fbf 4e4b 62a9 a4b9 b83f
000000f0: cca6 3461 1e0d a13f 3379 0a56 59f9 bcbf
00000100: 8188 bd79 7ce1 bdbf 48b2 0bc4 012f 9e3f
00000110: 0831 e27d eae1 bc3f 8f3d 162b 2d2b b5bf
00000120: 344c d44b 0630 92bf ce5b e82b 8c78 aebf
00000130: c40e 1ffa 880d b43f ca02 8d5e 71ae b23f
00000140: 1238 3fda f9e9 a5bf c8ac c105 29e0 a73f
00000150: 0e21 2710 9883 b43f fb52 8440 ad2b b7bf
00000160: 1441 7bd2 4b85 b43f 4a12 0519 0867 b0bf
00000170: 08de 14a3 ba61 a93f 04ec 7c72 2f9a b73f
00000180: 4c9b 6c78 b57b 98bf 8003 e119 c7bc 633f
00000190: ced1 5fd5 9872 b0bf 38e4 e591 2f69 b1bf
000001a0: e056 eb8d f785 653f f86f a656 1dd8 953f
000001b0: 4e5e 30a4 753c b73f 7c40 7bcd ab1c bcbf
000001c0: 6091 ad32 7085 853f 80e0 c964 bc31 8b3f
000001d0: 406f 3761 527f bcbf a007 c80d 478c 7a3f
000001e0: a06b 33b7 faf6 713f 4006 7eff 4500 813f
000001f0: 408f 82d4 2205 8cbf 7882 1759 7ff1 b13f
00000200: 9291 704b 2936 a4bf a0cb e6cc bc9e 9abf
00000210: 20b8 02b6 2b1d 9ebf c24a 9188 4c34 aabf
00000220: 3a1f 5fc3 4292 bd3f a820 22d6 4e54 b43f
00000230: 14cd 6a35 3e6e ba3f 9b70 d138 f578 b8bf
00000240: 70b4 18bc c83b 8fbf d6f2 9ce6 f17e b4bf
00000250: 80ca 246f 1b93 a8bf ac30 170e 4f89 b7bf
00000260: e872 9088 c9df 913f e0df 530f d7de b73f
00000270: 1cce 3dd7 c4b5 b43f da64 3cc5 2321 a6bf
00000280: 600e 792f f1e4 953f 2caa 2188 da81 96bf
00000290: 91a9 8fb7 97a5 bebf dec1 7574 0277 a1bf
000002a0: 3871 c1ef a341 9f3f f0fb e1e7 ba7d be3f
000002b0: 545c 0ed1 afb7 b8bf 008c 6414 c8eb 6f3f
000002c0: 6806 2e8f c325 b43f fe64 02af 6875 b0bf
000002d0: 581d 330e 8d7e 9e3f d8ee 430e 039f 973f
000002e0: 4a78 0e2d 63bd a1bf d213 de80 e23e a8bf
000002f0: a0f6 4337 9706 6d3f c4ad 4197 ba67 babf
00000300: 4613 1a9b f9eb b43f 3c74 722a 1369 a83f
00000310: a2af e28a e68a a4bf 5c7d 2f81 5eb0 a13f
00000320: 2a89 7225 5f9b adbf ce99 3cba 884a b4bf
00000330: 7847 90b8 9f0b 94bf d80b 6557 1fd0 a43f
00000340: ac5e 5970 7b72 a03f 6c18 6e08 02c2 a53f
00000350: c962 c60f cb22 b4bf 8b25 41fc 81c3 babf
00000360: 28a7 5fa5 51fe a73f d025 3cff d4eb 91bf
00000370: 7f73 3ccb a006 bcbf 7258 3926 d472 b5bf
00000380: 0403 071e 2669 b2bf 68c2 f328 f133 953f
00000390: a68b d38b a019 b93f 981d 7de1 6ab6 8dbf
000003a0: 1939 e8cb 5425 b9bf bed7 8f4d 0163 b73f
000003b0: 9cdb 5ca3 832b 9dbf f0eb 5e2a c2ef 94bf
000003c0: 547c 03b4 32ad b33f 7e27 6559 904d b6bf
000003d0: dc1e a158 2f19 b3bf f02f b147 64e2 87bf
000003e0: e4f6 407a 4e96 b13f 705c 1a09 4c8b a0bf
000003f0: 2c21 ecd0 6bcf a1bf b01d 736e 782b a23f
00000400: dc64 e7ac 445e b6bf f860 89a7 054a 80bf
00000410: 9049 7a3c 26e6 923f 4af5 913a 17dd bdbf
00000420: c88f 29fd 2444 b43f b41e bb16 d88e bc3f
00000430: 8066 318c 977e 8f3f 86c8 ae1e 4830 b7bf
00000440: d0fc 5c00 5b3e b63f c071 e882 b993 be3f
00000450: e627 b468 45cb b13f ee2a e861 0661 bbbf
00000460: 0062 34b2 07bb 48bf c808 2b3b 0ca5 a1bf
00000470: 70c7 2248 3faf bb3f 4e06 b2e8 b72c b53f
00000480: 2512 7092 90a1 bdbf 2ce5 f252 d08d b1bf
00000490: 3ed3 cdf6 daca a6bf 324c 6895 747f b93f
000004a0: a296 a771 1e30 b73f c869 d42c d5b1 b1bf
000004b0: ee93 fc72 3962 b53f 34df 9dcb 9102 b63f
000004c0: 18f3 454f 306f a8bf 4cc7 9e25 71b6 b53f
000004d0: 503d 6288 cc4b 9b3f 005d 5b58 bce3 7bbf
000004e0: c095 c955 783c b7bf 4e20 b2eb 47f6 a9bf
000004f0: 3216 2ec5 a31b b8bf a297 cc1f e7c9 b33f
00000500: 24d9 d221 b04a ba3f 92f6 f215 66bc b73f
00000510: f2f3 4fa1 4093 b3bf f273 668a de0c b0bf
00000520: a0e3 4041 f612 873f c04c 9754 7478 6d3f
00000530: 28f3 a338 0402 a23f 993a 50b3 0eb2 b7bf
00000540: 9094 f19b 598d b83f fcab e1f4 241e b0bf
00000550: 9824 90b1 b204 a8bf 6052 ff7e 801f b6bf
00000560: 5cce 64d9 8814 b13f 27d9 8892 cecd b6bf
00000570: d0f6 15fb 11ad a3bf a942 7f55 30b0 babf
00000580: 0443 1946 20cd 94bf 34d0 e273 4344 96bf
00000590: 3c15 dc19 a9aa b7bf 12bc 9f5b a9ed a9bf
000005a0: 74be 9102 1258 9ebf ca57 ecb6 f669 a9bf
000005b0: 9416 2733 4230 ae3f 5650 6c20 ef3b abbf
000005c0: 5006 b9f7 59ed 9ebf 5cf7 4ed4 0158 a23f
000005d0: 00be 8806 3322 78bf 8ce8 57f1 6c82 a43f
000005e0: d0d4 aa9d 66fa 733f 5098 65ad 113f 9abf
000005f0: 123b 33f7 fb33 bc3f 969e 33f2 2e4b a3bf
00000600: 4e72 8053 5cfe b73f 18e3 e0cd a2fb a43f
00000610: a848 3bf4 223b a93f 5838 17e1 2f08 9b3f
00000620: 1001 5ba6 6e37 73bf 4069 6f05 b71e 6a3f
00000630: 5073 e195 ce6d 9d3f a0bd 10fc da6f 8f3f
00000640: a018 fc33 3614 b7bf c455 5b08 ff21 a43f
00000650: cc77 a837 dc12 aebf
0.022951653716228343 0.056533067578184715 0.01915091052790105 0.010652997580755469 -0.10430089158246905 0.0783386037988501 0.09930507545823433 -0.10806127931133884
0.016025033209099926 -0.11167251507625275 -0.007885025269384546 -0.06653776525086519 -0.07953797465592943 0.04985329999735291 0.013666121984283852 -0.11068754190192912
-0.09828823178168035 -0.07117012456805452 0.056830465608596614 -0.11501833513842541 -0.10333259605284846 0.11352455561565916 0.0012830223561037524 0.03398448634959628
0.05680188927054203 -0.110241604435961 0.10636443749609537 -0.024699093010363743 -0.015230303650514934 0.09658269057608246 0.03330321251480725 -0.1131797633229084
-0.11672189685990199 0.029476192084006564 0.1128222043354904 -0.08269007017064765 -0.017761324289562633 -0.05951345478040758 0.07833152872540966 0.07297428663606378
-0.04280072011134463 0.046632081940367665 0.08013296503407139 -0.09051020455474294 0.08015893830020487 -0.06407213793597424 0.04957373848668217 0.09219643159023866
-0.02390941188346156 0.002409352177921098 -0.06424861153920533 -0.06801125823939536 0.002627357010491646 0.02133222428675194 0.09076628931540506 -0.10981248633038548
0.010508419558114823 0.013278457475493832 -0.11131777642679896 0.006481435350453341 0.004385928495333952 0.008301302775865271 -0.01368167124775932 0.07009120869725816
-0.03947571798224482 -0.02599616051311282 -0.02940815256504703 -0.051180259390681396 0.11551301259816862 0.07941143730033906 0.10324467472201021 -0.09559567105447046
-0.015250747909784063 -0.08006202583505781 -0.04799733859762956 -0.09193891614922006 0.01745524307272009 0.09324401973924479 0.08089857344548829 -0.04322158606209721
0.021381157419695263 -0.021979727324302242 -0.11971424323534154 -0.034111096111590675 0.03052383566715486 0.11910598908615078 -0.09655283788593866 0.003896609097084447
0.07870123143768526 -0.06429151795090957 0.029779628745726455 0.02306751989907138 -0.03464803624159225 -0.04735477278794743 0.003543181746976057 -0.10314527695452741
0.08172569309870167 0.047676657611397805 -0.04012222714786097 0.03454871489497677 -0.05782601673242234 -0.07926229998393028 -0.01957559169756659 0.04065034810857754
0.032123429741372916 0.04249578812509544 -0.07865590224390497 -0.10454571159893626 0.04686217445107693 -0.01750119026022451 -0.10947613679713973 -0.08378339703753726
-0.07191694481936045 0.0207059556241255 0.09804728902558554 -0.014508090025300999 -0.09822587946129992 0.09135444778061605 -0.02848630604350043 -0.02044585593806042
0.07686154265273731 -0.08712103064058671 -0.07460304178050187 -0.011662276685591139 0.0686997459860908 -0.032312751876070744 -0.03478562283823047 0.035487903101564355
-0.08737591954504204 -0.007953685927688955 0.018456075135483696 -0.11665482692656784 0.07916480236741485 0.11155462794260523 0.015378173795556949 -0.09058047055330762
0.08688896902912124 0.11944159933086151 0.06950792127841474 -0.10694923296265887 -0.0007547175959273233 -0.034462339613598625 0.10814280997399606 0.08271359854736568
-0.115746532203112 -0.06857015633695046 -0.044516413333360635 0.0996010651363555 0.09057798647662677 -0.06911976189113667 0.08353003556528879 0.08597670765982174
-0.04772330253306317 0.08481509369337664 0.02665633757038438 -0.006808982585162271 -0.09076644987506821 -0.05070709945818007 -0.0941717487713383 0.0772995426783312
0.10270214868328204 0.09271848712793432 -0.0764656442479035 -0.06269636992369934 0.011266635767343491 0.0035974762038023245 0.035171634592165824 -0.09256069066780483
0.0959068303796633 -0.06295996645501128 -0.046910843062570595 -0.08641818142434365 0.06671958262887173 -0.08907786443237296 -0.03842979612362074 -0.10425092780429658
-0.020313743856891456 -0.021744779537314865 -0.0924478233465224 -0.050641338762822966 -0.02963283672983015 -0.049636564092153515 0.058961933845734255 -0.05319163580694013
-0.03020229887466136 0.03582769123703031 -0.005891990011647419 0.04005756803594904 0.0048774727280733315 -0.02563121434050003 0.1101682165637892 -0.037682978692655286
0.09372498549095917 0.04098232997097834 0.049279300988602615 0.026398418534704454 -0.0046915361651260895 0.003188474143354686 0.02873919286536203 0.015350066010880792
-0.09015215653571085 0.039321870584597046 -0.05873764209194085
